Model: "autoencoder"
_________________________________________________________________
 Layer (type)                Output Shape              Param #   
=================================================================
 input_1 (InputLayer)        [(None, 334, 1)]          0         
                                                                 
 flatten (Flatten)           (None, 334)               0         
                                                                 
 dense (Dense)               (None, 42)                14070     
                                                                 
 dense_1 (Dense)             (None, 42)                1806      
                                                                 
 dense_2 (Dense)             (None, 334)               14362     
                                                                 
 reshape (Reshape)           (None, 334, 1)            0         
                                                                 
=================================================================
Total params: 30,238
Trainable params: 30,238
Non-trainable params: 0
_________________________________________________________________
   1/2826 [..............................] - ETA: 6:46 - loss: 0.2669
…
